# LW-YOLOv8 CSP-CTFN模块配置文件
# 仅包含: CSP-CTFN模块

nc: 2  # 类别数量 (head=0, helmet=1)
scales:
  n: [0.33, 0.25, 1024]
  s: [0.33, 0.50, 1024]
  m: [0.67, 0.75, 768]
  l: [1.00, 1.00, 512]
  x: [1.00, 1.25, 512]

backbone:
  # [from, repeats, module, args]
  - [-1, 1, Conv, [64, 3, 2]]     # 0-P1/2
  - [-1, 1, Conv, [128, 3, 2]]    # 1-P2/4
  - [-1, 3, C2f, [128, True]]     # 2
  - [-1, 1, Conv, [256, 3, 2]]    # 3-P3/8
  - [-1, 6, CSP_CTFN, [256, True]] # 4
  - [-1, 1, Conv, [512, 3, 2]]    # 5-P4/16
  - [-1, 6, CSP_CTFN, [512, True]] # 6
  - [-1, 1, Conv, [1024, 3, 2]]   # 7-P5/32
  - [-1, 3, CSP_CTFN, [1024, True]] # 8
  - [-1, 1, SPPF, [1024, 5]]      # 9

head:
  - [-1, 1, nn.Upsample, [None, 2, 'nearest']]
  - [[-1, 6], 1, Concat, [1]]     # cat backbone P4
  - [-1, 3, C2f, [512]]           # 12

  - [-1, 1, nn.Upsample, [None, 2, 'nearest']]
  - [[-1, 4], 1, Concat, [1]]     # cat backbone P3
  - [-1, 3, C2f, [256]]           # 15 (P3/8-small)

  - [-1, 1, Conv, [256, 3, 2]]
  - [[-1, 12], 1, Concat, [1]]    # cat head P4
  - [-1, 3, C2f, [512]]           # 18 (P4/16-medium)

  - [-1, 1, Conv, [512, 3, 2]]
  - [[-1, 9], 1, Concat, [1]]     # cat head P5
  - [-1, 3, C2f, [1024]]          # 21 (P5/32-large)

  - [[15, 18, 21], 1, Detect, [nc]]     # 标准检测头